…
_update_freq': 1, 'ema_fp32': False}, 'simul_type': None}
2025-03-13 13:28:03 | INFO | fairseq.data.multilingual.multilingual_data_manager | parsed the language list as they are ordered in the option: ['hi', 'mr']
2025-03-13 13:28:03 | INFO | fairseq.data.multilingual.multilingual_data_manager | [hi] dictionary: 128112 types
2025-03-13 13:28:04 | INFO | fairseq.data.multilingual.multilingual_data_manager | [mr] dictionary: 128112 types
2025-03-13 13:28:11 | INFO | fairseq_cli.train | TransformerModel(
  (encoder): TransformerEncoderBase(
    (dropout_module): FairseqDropout()
    (embed_tokens): Embedding(128112, 1024, padding_idx=1)
    (embed_positions): SinusoidalPositionalEmbedding()
    (layers): LayerDropModuleList(
      (0-22): 23 x TransformerEncoderLayerBase(
        (self_attn): MultiheadAttention(
          (dropout_module): FairseqDropout()
          (k_proj): Linear(in_features=1024, out_features=1024, bias=True)
          (v_proj): Linear(in_features=1024, out_features=1024, bias=True)
          (q_proj): Linear(in_features=1024, out_features=1024, bias=True)
          (out_proj): Linear(in_features=1024, out_features=1024, bias=True)
        )
        (self_attn_layer_norm): LayerNorm((1024,), eps=1e-05, elementwise_affine=True)
        (dropout_module): FairseqDropout()
        (activation_dropout_module): FairseqDropout()
        (fc1): Linear(in_features=1024, out_features=8192, bias=True)
        (fc2): Linear(in_features=8192, out_features=1024, bias=True)
        (final_layer_norm): LayerNorm((1024,), eps=1e-05, elementwise_affine=True)
      )
    )
    (layer_norm): LayerNorm((1024,), eps=1e-05, elementwise_affine=True)
  )
  (decoder): TransformerDecoderBase(
    (dropout_module): FairseqDropout()
    (embed_tokens): Embedding(128112, 1024, padding_idx=1)
    (embed_positions): SinusoidalPositionalEmbedding()
    (layers): LayerDropModuleList(
      (0-20): 21 x TransformerDecoderLayerBase(
        (dropout_module): FairseqDropout()
        (self_attn): MultiheadAttention(
          (dropout_module): FairseqDropout()
          (k_proj): Linear(in_features=1024, out_features=1024, bias=True)
          (v_proj): Linear(in_features=1024, out_features=1024, bias=True)
          (q_proj): Linear(in_features=1024, out_features=1024, bias=True)
          (out_proj): Linear(in_features=1024, out_features=1024, bias=True)
        )
        (activation_dropout_module): FairseqDropout()
        (self_attn_layer_norm): LayerNorm((1024,), eps=1e-05, elementwise_affine=True)
        (encoder_attn): MultiheadAttention(
          (dropout_module): FairseqDropout()
          (k_proj): Linear(in_features=1024, out_features=1024, bias=True)
          (v_proj): Linear(in_features=1024, out_features=1024, bias=True)
          (q_proj): Linear(in_features=1024, out_features=1024, bias=True)
          (out_proj): Linear(in_features=1024, out_features=1024, bias=True)
        )
        (encoder_attn_layer_norm): LayerNorm((1024,), eps=1e-05, elementwise_affine=True)
        (fc1): Linear(in_features=1024, out_features=8192, bias=True)
        (fc2): Linear(in_features=8192, out_features=1024, bias=True)
        (final_layer_norm): LayerNorm((1024,), eps=1e-05, elementwise_affine=True)
      )
    )
    (layer_norm): LayerNorm((1024,), eps=1e-05, elementwise_affine=True)
    (output_projection): Linear(in_features=1024, out_features=128112, bias=False)
  )
)
2025-03-13 13:28:11 | INFO | fairseq_cli.train | task: DualTargetTranslationTask
2025-03-13 13:28:11 | INFO | fairseq_cli.train | model: TransformerModel
2025-03-13 13:28:11 | INFO | fairseq_cli.train | criterion: DualTargetLoss
2025-03-13 13:28:12 | INFO | fairseq_cli.train | num. shared model params: 1,239,470,080 (num. trained: 1,239,470,080)
…
leu', 'pad': 1, 'eos': 2, 'unk': 3}, 'bpe': None, 'tokenizer': None, 'ema': {'_name': None, 'store_ema': False, 'ema_decay': 0.9999, 'ema_start_update': 0, 'ema_seed_model': None, 'ema_update_freq': 1, 'ema_fp32': False}, 'simul_type': None}
2025-03-13 14:23:45 | INFO | fairseq.tasks.dual_target_translation | [hi] dictionary: 128112 types
2025-03-13 14:23:45 | INFO | fairseq.tasks.dual_target_translation | [mr] dictionary: 128114 types
2025-03-13 14:23:54 | INFO | fairseq_cli.train | TransformerModel(
  (encoder): TransformerEncoderBase(
    (dropout_module): FairseqDropout()
    (embed_tokens): Embedding(128112, 1024, padding_idx=1)
    (embed_positions): SinusoidalPositionalEmbedding()
    (layers): LayerDropModuleList(
      (0-21): 22 x TransformerEncoderLayerBase(
        (self_attn): MultiheadAttention(
          (dropout_module): FairseqDropout()
          (k_proj): Linear(in_features=1024, out_features=1024, bias=True)
          (v_proj): Linear(in_features=1024, out_features=1024, bias=True)
          (q_proj): Linear(in_features=1024, out_features=1024, bias=True)
          (out_proj): Linear(in_features=1024, out_features=1024, bias=True)
        )
        (self_attn_layer_norm): LayerNorm((1024,), eps=1e-05, elementwise_affine=True)
        (dropout_module): FairseqDropout()
        (activation_dropout_module): FairseqDropout()
        (fc1): Linear(in_features=1024, out_features=8192, bias=True)
        (fc2): Linear(in_features=8192, out_features=1024, bias=True)
        (final_layer_norm): LayerNorm((1024,), eps=1e-05, elementwise_affine=True)
      )
    )
    (layer_norm): LayerNorm((1024,), eps=1e-05, elementwise_affine=True)
  )
  (decoder): TransformerDecoderBase(
    (dropout_module): FairseqDropout()
    (embed_tokens): Embedding(128114, 1024, padding_idx=1)
    (embed_positions): SinusoidalPositionalEmbedding()
    (layers): LayerDropModuleList(
      (0-22): 23 x TransformerDecoderLayerBase(
        (dropout_module): FairseqDropout()
        (self_attn): MultiheadAttention(
          (dropout_module): FairseqDropout()
          (k_proj): Linear(in_features=1024, out_features=1024, bias=True)
          (v_proj): Linear(in_features=1024, out_features=1024, bias=True)
          (q_proj): Linear(in_features=1024, out_features=1024, bias=True)
          (out_proj): Linear(in_features=1024, out_features=1024, bias=True)
        )
        (activation_dropout_module): FairseqDropout()
        (self_attn_layer_norm): LayerNorm((1024,), eps=1e-05, elementwise_affine=True)
        (encoder_attn): MultiheadAttention(
          (dropout_module): FairseqDropout()
          (k_proj): Linear(in_features=1024, out_features=1024, bias=True)
          (v_proj): Linear(in_features=1024, out_features=1024, bias=True)
          (q_proj): Linear(in_features=1024, out_features=1024, bias=True)
          (out_proj): Linear(in_features=1024, out_features=1024, bias=True)
        )
        (encoder_attn_layer_norm): LayerNorm((1024,), eps=1e-05, elementwise_affine=True)
        (fc1): Linear(in_features=1024, out_features=8192, bias=True)
        (fc2): Linear(in_features=8192, out_features=1024, bias=True)
        (final_layer_norm): LayerNorm((1024,), eps=1e-05, elementwise_affine=True)
      )
    )
    (layer_norm): LayerNorm((1024,), eps=1e-05, elementwise_affine=True)
    (output_projection): Linear(in_features=1024, out_features=128114, bias=False)
  )
)
2025-03-13 14:23:54 | INFO | fairseq_cli.train | task: DualTargetTranslationTask
2025-03-13 14:23:54 | INFO | fairseq_cli.train | model: TransformerModel
2025-03-13 14:23:54 | INFO | fairseq_cli.train | criterion: DualTargetLabelSmoothedCrossEntropyCriterion
2025-03-13 14:23:54 | INFO | fairseq_cli.train | num. shared model params: 1,370,658,816 (num. trained: 1,370,658,816)
…
